…
       'org_x2', 'org_x22', 'org_y1', 'org_y11', 'org_y2', 'org_y22', 'split'],
      dtype='object')

	 validating model

	1.no of rows: (14268, 3)

	2.no of rows: (14268, 3) 	 columns: Index(['Image', 'Word', 'Writer'], dtype='object')
Training on GPU: True

	1.no of rows: (14268, 3)

	2.no of rows: (14268, 3) 	 columns: Index(['Image', 'Word', 'Writer'], dtype='object')
==========================================================================================
Layer (type:depth-idx)                   Output Shape              Param #
==========================================================================================
├─Sequential: 1-1                        [-1, 512, 2, 8]           --
|    └─Conv2d: 2-1                       [-1, 64, 25, 125]         9,408
|    └─BatchNorm2d: 2-2                  [-1, 64, 25, 125]         128
|    └─ReLU: 2-3                         [-1, 64, 25, 125]         --
|    └─MaxPool2d: 2-4                    [-1, 64, 13, 63]          --
|    └─Sequential: 2-5                   [-1, 64, 13, 63]          --
|    |    └─BasicBlock: 3-1              [-1, 64, 13, 63]          73,984
|    |    └─BasicBlock: 3-2              [-1, 64, 13, 63]          73,984
|    |    └─BasicBlock: 3-3              [-1, 64, 13, 63]          73,984
|    └─Sequential: 2-6                   [-1, 128, 7, 32]          --
|    |    └─BasicBlock: 3-4              [-1, 128, 7, 32]          230,144
|    |    └─BasicBlock: 3-5              [-1, 128, 7, 32]          295,424
|    |    └─BasicBlock: 3-6              [-1, 128, 7, 32]          295,424
|    |    └─BasicBlock: 3-7              [-1, 128, 7, 32]          295,424
|    └─Sequential: 2-7                   [-1, 256, 4, 16]          --
|    |    └─BasicBlock: 3-8              [-1, 256, 4, 16]          919,040
|    |    └─BasicBlock: 3-9              [-1, 256, 4, 16]          1,180,672
|    |    └─BasicBlock: 3-10             [-1, 256, 4, 16]          1,180,672
|    |    └─BasicBlock: 3-11             [-1, 256, 4, 16]          1,180,672
|    |    └─BasicBlock: 3-12             [-1, 256, 4, 16]          1,180,672
|    |    └─BasicBlock: 3-13             [-1, 256, 4, 16]          1,180,672
|    └─Sequential: 2-8                   [-1, 512, 2, 8]           --
|    |    └─BasicBlock: 3-14             [-1, 512, 2, 8]           3,673,088
|    |    └─BasicBlock: 3-15             [-1, 512, 2, 8]           4,720,640
|    |    └─BasicBlock: 3-16             [-1, 512, 2, 8]           4,720,640
├─TemporalPyramidPooling: 1-2            [-1, 4096]                --
├─Sequential: 1-3                        [-1, 165]                 --
|    └─Linear: 2-9                       [-1, 4096]                16,781,312
|    └─ReLU: 2-10                        [-1, 4096]                --
|    └─Dropout: 2-11                     [-1, 4096]                --
|    └─Linear: 2-12                      [-1, 165]                 676,005
|    └─ReLU: 2-13                        [-1, 165]                 --
├─Sequential: 1-4                        [-1, 604]                 --
|    └─Linear: 2-14                      [-1, 4096]                16,781,312
|    └─ReLU: 2-15                        [-1, 4096]                --
|    └─Dropout: 2-16                     [-1, 4096]                --
|    └─Linear: 2-17                      [-1, 604]                 2,474,588
|    └─Sigmoid: 2-18                     [-1, 604]                 --
==========================================================================================
Total params: 57,997,889
Trainable params: 57,997,889
Non-trainable params: 0
Total mult-adds (G): 1.24
==========================================================================================
Input size (MB): 0.14
Forward/backward pass size (MB): 15.17
Params size (MB): 221.24
Estimated Total Size (MB): 236.56
…
